models/finbro_rl_model_20250522.pt (torch, 6343 bytes, 4 tensors)

fc1.weight f4 [128, 3]
0	0xbe501c1e	-0.20323226
1	0x3e879fc2	0.26489073
2	0x3f137dde	0.57613933
3	0x3e68e6bc	0.22744268
4	0xbe83877b	-0.256893
5	0x3bbe3500	0.005804658
6	0xbf096bc8	-0.53680086
7	0x3ebfd914	0.37470305
8	0x3b9c8e00	0.00477767
9	0xbdec2380	-0.115302086
10	0xbf0075df	-0.50179857
11	0x3e47a990	0.19498277
12	0x3e604b94	0.21903831
13	0x3e93e5d4	0.28886282
14	0x3c2ae440	0.010430396
15	0xbf0a52a6	-0.5403236
16	0xbef560fd	-0.4792556
17	0xbd56c7d0	-0.05243665
18	0x3e96b5ca	0.2943557
19	0xbe1816ea	-0.14852491
20	0x3ea1c72c	0.3159727
21	0xbef4be77	-0.47801563
22	0xbea7bbea	-0.32760555
23	0xbecc34d0	-0.39884043
24	0xbedf9b60	-0.4367323
25	0x3ce9cf60	0.028541267
26	0xbec1cbf8	-0.37850928
27	0x3e82ffbc	0.25585735
28	0xbde9b6b4	-0.11411801
29	0x3e75d3f8	0.24006641
30	0x3ee87a0c	0.45405614
31	0x3ead1594	0.33805525
32	0x3e838d5e	0.25693792
33	0x3e173fc8	0.14770424
34	0xbdfbae34	-0.12289086
35	0xbed7318e	-0.42029995
36	0x3eede690	0.46464968
37	0xbf0ad364	-0.54228806
38	0x3f10fdfc	0.5663755
39	0x3ed7443a	0.4204424
40	0xbe1f6408	-0.15565503
41	0x3ee0d530	0.4391265
42	0xbed71e69	-0.4201539
43	0xbe976a42	-0.29573256
44	0x3f06d950	0.5267534
45	0xbe2e10ec	-0.16998643
46	0xbc119000	-0.00888443
47	0xbea13071	-0.3148227
48	0x3e1015e4	0.1407085
49	0xbf0cca28	-0.54995966
50	0xbe8ef1ab	-0.27918753
51	0x3eff2c3c	0.49838436
52	0xbecf09ba	-0.40437108
53	0x3ec1de64	0.37864983
54	0x3e953fe2	0.291503
55	0xbce6ca80	-0.028172731
56	0xbf050c1b	-0.51971596
57	0xbcceede0	-0.025259912
58	0x3ee96a30	0.45588827
59	0xbe372c96	-0.17888102
60	0x3ee1eb7c	0.44124973
61	0xbdaa7110	-0.08322346
62	0x3ec1cdf6	0.37852448
63	0x3d4c97e0	0.049949527
64	0xbe8911a7	-0.2677128
65	0x3f114282	0.5674211
66	0x3ec3130e	0.38100475
67	0x3ecced58	0.4002483
68	0xbe531d12	-0.20616558
69	0xbec375cb	-0.38175806
70	0xbe69230a	-0.22767273
71	0x3d16c5b0	0.036809623
72	0x3e5eebb0	0.21769595
73	0xbe521140	-0.20514393
74	0xbe5f1ab8	-0.21787536
75	0xbc558780	-0.013032794
76	0x3bede880	0.007260382
77	0x3ee5d4f4	0.44889033
78	0x3efa4294	0.4887892
79	0x3ce0dc00	0.027448654
80	0x3e8a78f4	0.27045405
81	0xbf092372	-0.5356971
82	0xbe40dfdc	-0.18835396
83	0xbefb4d5f	-0.49082467
84	0xbddd0310	-0.107916
85	0xbe857ed0	-0.26073313
86	0xbf0ab659	-0.5418449
87	0xbd8dd638	-0.069256246
88	0xbf125459	-0.57159954
89	0xbf08f4cc	-0.5349853
90	0x3e99784a	0.29974586
91	0x3f08a036	0.5336946
92	0xbccad2c0	-0.024758697
93	0xbe855935	-0.26044622
94	0x3e96c436	0.29446572
95	0x3e217050	0.157655
96	0xbe417b4c	-0.1889469
97	0xbea4627e	-0.32106394
98	0x3e720cfc	0.23637766
99	0x3ea4cdec	0.32188356
100	0x3e8b679e	0.2722749
101	0xbeba3b44	-0.3637334
102	0x3f11b1ee	0.56912124
103	0xbe769010	-0.24078393
104	0x3ea94ae8	0.3306496
105	0x3e830d32	0.25596005
106	0xbd293390	-0.04130894
107	0xbf099d31	-0.5375548
108	0x3ec8604e	0.39135975
109	0xbd7194c0	-0.05897975
110	0x3f0b9480	0.5452347
111	0x3f06be62	0.5263425
112	0x3c7ca300	0.015419722
113	0xbe01850c	-0.1264841
114	0xbdb4c9cc	-0.08827552
115	0x3c928980	0.01788783
116	0x3f0c7e2c	0.54880023
117	0xbea56d8b	-0.32310137
118	0x3dd53660	0.10410762
119	0x3eba8754	0.36431372
120	0xbe652f2e	-0.22381279
121	0x3ebdf354	0.37099707
122	0x3f056292	0.5210353
123	0xbede3e39	-0.43406847
124	0x3e20e9e8	0.15714228
125	0x3bc6ef80	0.006071031
126	0xbf086199	-0.5327392
127	0xbe670794	-0.22561485
128	0x3e976622	0.2957011
129	0x3e7ccc30	0.24687266
130	0xbe61a7d8	-0.22036684
131	0xbcd84b80	-0.026403189
132	0x3e9f5d56	0.31125897
133	0xbc6f8c80	-0.0146209
134	0xbef5a7a4	-0.47979462
135	0xbefaeb34	-0.4900757
136	0x3e294960	0.16531897
137	0xbec48230	-0.38380575
138	0xbe6f35e6	-0.23360404
139	0x3e5e0c64	0.21684414
140	0x3e9eab0a	0.30989867
141	0xbef8db3c	-0.48604763
142	0x3e985aa2	0.29756647
143	0xbe892f22	-0.26793772
144	0xbe93a423	-0.28836164
145	0x3e75d508	0.24007046
146	0x3ea0890e	0.31354564
147	0x3f02c358	0.5107932
148	0xbd9fea50	-0.078083634
149	0x3db7de90	0.08977997
150	0x3e60fa74	0.2197054
151	0xbcc53ae0	-0.024075925
152	0x3e1a27e8	0.15054286
153	0xbe91e2ad	-0.28493252
154	0x3e5bfd28	0.2148329
155	0x3ed788ee	0.42096657
156	0x3cad64e0	0.021166265
157	0xbe9bb2b8	-0.3040979
158	0xbddfcd78	-0.10927862
159	0xbdae63f0	-0.08515155
160	0xbebd2953	-0.3694559
161	0x3e8a7db8	0.2704904
162	0xbe7ae77a	-0.24502364
163	0x3ecc6db2	0.3992744
164	0xbeeff0ba	-0.46863347
165	0xbe1fcf22	-0.15606359
166	0xbd406820	-0.0469743
167	0xbda1cee4	-0.079007894
168	0xbef6e0cb	-0.48218378
169	0xbea72b01	-0.32649997
170	0xbe7b3a6c	-0.24534005
171	0x3ecf48d0	0.4048524
172	0xbd983cb0	-0.0743345
173	0x3f00388c	0.50086284
174	0x3ef97bf0	0.4872737
175	0xbe7222be	-0.23646066
176	0xbdf09560	-0.11747241
177	0x3f1038da	0.5633675
178	0xbf1289ff	-0.57241815
179	0x3ef42160	0.47681713
180	0xbea843fa	-0.32864362
181	0xbe6c5624	-0.23079735
182	0xbec759b4	-0.38935626
183	0x3e6a6f90	0.2289412
184	0xbc9d7a60	-0.019223392
185	0x3ee1bad4	0.4408785
186	0xbe9db66b	-0.30803236
187	0x3ef42cdc	0.47690475
188	0xbd663a20	-0.056207776
189	0xbe233d1a	-0.15941277
190	0xbe1d5e74	-0.15368062
191	0x3ec479aa	0.38374072
192	0xbe8efcf0	-0.2792735
193	0x3d9555f0	0.07291782
194	0xbe35088e	-0.17679045
195	0xbec5d3ce	-0.38638157
196	0xbe4fd138	-0.20294654
197	0xbe6eb056	-0.23309454
198	0x3ec4a056	0.38403577
199	0xbeb2a66a	-0.3489259
200	0x3ee5b254	0.44862616
201	0x3e82dd70	0.25559568
202	0x3e8f67ba	0.28008825
203	0x3eb380f6	0.35059327
204	0xbe70706e	-0.23480389
205	0xbf0a289d	-0.5396822
206	0xbeba29b6	-0.36359948
207	0xbe86e6aa	-0.26347858
208	0x3e26af04	0.162777
209	0xbe45b388	-0.19306767
210	0x3c91f500	0.01781702
211	0x3da3e920	0.080034494
212	0x3e83a6e8	0.25713277
213	0x3c8254a0	0.015909493
214	0xbe9275c0	-0.2860546
215	0x3e0dc008	0.13842785
216	0xbe3933ee	-0.18086216
217	0xbf0dd070	-0.55396175
218	0xbded3c18	-0.115837276
219	0xbef68fc6	-0.48156565
220	0x3ef1abe8	0.47201467
221	0xbdb2fcc0	-0.087396145
222	0x3ed1b772	0.4096027
223	0xbe1aea96	-0.1512855
224	0x3f11c360	0.56938744
225	0x3da6f0b8	0.08151382
226	0xbeeecc28	-0.46640134
227	0x3eff9efc	0.49925983
228	0xbec90fdc	-0.39269912
229	0xbf11b0cc	-0.56910396
230	0xbf0c6dfb	-0.54855317
231	0xbde130ac	-0.109956115
232	0x3eba0d8e	0.36338466
233	0xbe9521c4	-0.29127324
234	0x3efab3f0	0.48965406
235	0xbf07c3c0	-0.53033066
236	0x3c0d8c40	0.008639395
237	0xbe1717ac	-0.14755124
238	0xbe54c0ca	-0.20776668
239	0xbe6c9922	-0.2310529
240	0xbf135a59	-0.57559735
241	0x3d8e1190	0.069369435
242	0xbe316e26	-0.17327175
243	0x3f0345f4	0.51278615
244	0x3f05dd06	0.5229038
245	0x3f088e5e	0.53342235
246	0x3f06d4b2	0.526683
247	0xbf0d0397	-0.550836
248	0x3eba0bf8	0.36337256
249	0x3e8af8c2	0.27142912
250	0xbf07f07a	-0.53101313
251	0x3d861370	0.06546676
252	0xbee02822	-0.4378062
253	0xbee45dad	-0.4460272
254	0x3e84ecb4	0.2596184
255	0x3edc280c	0.42999303

fc1.bias f4 [128]
0	0x3c6808c0	0.014162242
1	0x3f0fc9b4	0.5616715
2	0x3eeac400	0.4585266
3	0xbea8ab93	-0.329434
4	0xbe54582e	-0.20736763
5	0x3e8770f6	0.2645337
6	0xbe737c86	-0.2377797
7	0x3e9631f8	0.29334998
8	0xbe50d326	-0.20393047
9	0xbf0fcc24	-0.5617087
10	0x3f074d44	0.52852273
11	0x3ec073de	0.375884
12	0xbe7b8a4a	-0.24564472
13	0xbd1379a0	-0.036004663
14	0x3c6b0640	0.014344752
15	0xbe6056cc	-0.2190811
16	0xbe6a9712	-0.22909191
17	0x3ed1eaa4	0.4099933
18	0x3e95c806	0.29254168
19	0x3f06d3f8	0.5266719
20	0x3e92979e	0.286313
21	0xbee692e9	-0.4503396
22	0x3e60eb54	0.2196477
23	0xbedb9b11	-0.42891744
24	0x3d5f6010	0.05453497
25	0xbd185390	-0.037189066
26	0x3bd1a400	0.006397724
27	0x3ea8d0e0	0.3297186
28	0x3e03fb74	0.1288889
29	0x3ce8edc0	0.02843368
30	0xbe82b7c3	-0.25530824
31	0x3ee53758	0.44768786
32	0x3e01e570	0.1268518
33	0x3d25a1a0	0.04043734
34	0xbed9f02c	-0.4256605
35	0x3e129648	0.1431514
36	0xbe1eb608	-0.15499127
37	0x3ee20c48	0.44149995
38	0xbcd38fc0	-0.025825381
39	0xbccb7dc0	-0.024840236
40	0xbf0e91fa	-0.5569149
41	0xbedc77a9	-0.43060043
42	0xbeda2f28	-0.42614102
43	0x3f07ca34	0.5304291
44	0xbe8931b2	-0.26795727
45	0x3f0cb960	0.5497036
46	0x3ebbb456	0.36661023
47	0xbece5ede	-0.40306753
48	0xbf0ae9a4	-0.5426276
49	0xbe8619f1	-0.26191667
50	0xbe7f48c8	-0.24930108
51	0xbd396a80	-0.045267582
52	0xbe000152	-0.12500504
53	0x3e4df310	0.20112252
54	0x3ebbf97a	0.36713773
55	0x3d8d1178	0.068880975
56	0xbcb599a0	-0.02216798
57	0xbde74b48	-0.11293656
58	0x3ea2de24	0.31810105
59	0xbc4533c0	-0.012036264
60	0xbea9095e	-0.3301496
61	0x3eb04b0a	0.3443225
62	0x3e0fbc84	0.14036757
63	0x398ac000	0.00026464462
64	0xbe8fc7ad	-0.28082028
65	0x3f0bf094	0.5466397
66	0xbdd5ab24	-0.10433033
67	0x3e003394	0.12519675
68	0xbd141380	-0.03615141
69	0xbeaa4460	-0.3325529
70	0x3eb50602	0.35356146
71	0xbe843804	-0.25823987
72	0xbe82ce5e	-0.2554807
73	0xbe5272ce	-0.20551607
74	0xbe8ff3ae	-0.281156
75	0xbebb0268	-0.36525273
76	0xbe74597c	-0.2386226
77	0xbe5701ec	-0.20996827
78	0x3ddaa820	0.106765985
79	0x3df5b920	0.119982004
80	0x3e188fc8	0.14898598
81	0xbed419c6	-0.41425914
82	0xbe2b2988	-0.16715062
83	0x3eb16b82	0.34652334
84	0x3e272978	0.16324413
85	0x3ed7e25a	0.4216488
86	0xbe1a6ede	-0.15081355
87	0x3e625218	0.22101629
88	0xbe5b7e62	-0.2143493
89	0x3e01f3c8	0.12690651
90	0x3ea22b1e	0.3167352
91	0xbe6c3450	-0.2306683
92	0x3e496e58	0.19670999
93	0x3f0b0888	0.5430989
94	0x3f06b738	0.5262332
95	0xbdb7cfa4	-0.08975151
96	0x3e3d07cc	0.18460006
97	0xbf131229	-0.57449585
98	0xbec11075	-0.37707868
99	0x3e782fec	0.2423703
100	0x3e5d075c	0.21584839
101	0x3eb2bf4c	0.34911573
102	0xbf0a6401	-0.54058844
103	0x3f0bfb88	0.5468068
104	0xbca3c580	-0.019991636
105	0xbeeaabee	-0.45834297
106	0xbdeb67f8	-0.1149444
107	0x3f078c0e	0.5294808
108	0x3edf6f4c	0.436396
109	0x3e1f1910	0.15536904
110	0x3d8e1f90	0.06939614
111	0xbedd160e	-0.4318089
112	0xbd4e09a0	-0.050302148
113	0xbf11f74e	-0.5701798
114	0x3ef08a50	0.46980524
115	0x3dba9278	0.09109968
116	0xbe307088	-0.17230427
117	0x3f04b08e	0.518319
118	0x3e6a21d0	0.22864461
119	0xbefa6b02	-0.48909765
120	0xbd6fbbb0	-0.058528602
121	0x3ee433d8	0.44570804
122	0xbec1cbe8	-0.3785088
123	0xbca8f480	-0.0206244
124	0xbce703e0	-0.02820009
125	0x3f08452e	0.5323056
126	0xbd8f1bd8	-0.06987733
127	0x3cd67520	0.026178896

fc2.weight f4 [3, 128]
0	0xbd8a15ff	-0.06742477
1	0xbd015fff	-0.03158569
2	0x3da21ff1	0.079162486
3	0xbd3d94f8	-0.046284646
4	0x3d2c6f42	0.04209829
5	0x3ae0af00	0.0017141998
6	0xbd53e8bf	-0.051735636
7	0xbcc68b84	-0.024236448
8	0xbca8a704	-0.020587452
9	0xbd86d008	-0.065826476
10	0xbdaf80e5	-0.085695066
11	0xbdb10c73	-0.086449526
12	0xbd8174f6	-0.06321137
13	0xbd440093	-0.04785211
14	0xbd074395	-0.033023436
15	0xbc919810	-0.017772704
16	0xbd44f98d	-0.048089553
17	0xbd1a3ae6	-0.037653826
18	0x3db0ce55	0.08633105
19	0xbc376d88	-0.011195548
20	0x3d8a8eed	0.06765542
21	0x3daebd17	0.0853216
22	0xbd114341	-0.03546453
23	0xbc85b5f4	-0.016322114
24	0x3ca2cb80	0.019872427
25	0xbd7718aa	-0.060326256
26	0xbc74b6e8	-0.014936186
27	0x3b724d60	0.0036972389
28	0xbd32b306	-0.04362776
29	0xbd5b0c57	-0.053478565
30	0x3cbcd8e4	0.02305264
31	0x3cdb6f68	0.026786521
32	0xbd0675bf	-0.032827135
33	0x3da3f42f	0.08005559
34	0xbdb3ffd3	-0.08789029
35	0xbd5c198a	-0.053735293
36	0x3d8b7aa5	0.06810502
37	0x3d49b2d2	0.049242802
38	0x3d6c8c8e	0.05775123
39	0xbd6aa0b3	-0.05728216
40	0x3c526090	0.012840405
41	0x3b529740	0.003213361
42	0xbd772ee6	-0.06034746
43	0x3cf59c0c	0.029981636
44	0xbcac2b1c	-0.02101665
45	0x3cc6803c	0.024231069
46	0xbce041b6	-0.027375083
47	0xbd8096eb	-0.06278785
48	0x3d03b66c	0.032156393
49	0xbc1f2db8	-0.00971549
50	0x3c453d28	0.012038507
51	0xbd15fbf1	-0.036617223
52	0x3d44e4be	0.048069708
53	0x3d75ad2e	0.05997961
54	0xbc901720	-0.017589152
55	0xbd0346af	-0.03204983
56	0xbda80487	-0.082039885
57	0x3d069452	0.032856293
58	0xbd97889d	-0.07399104
59	0xbd627072	-0.055283017
60	0x3c9c1524	0.01905305
61	0xbb2aa2a0	-0.0026036873
62	0xbd359949	-0.044335637
63	0x3d4f45e2	0.050603755
64	0x3b44ef20	0.0030049756
65	0xbd8ba722	-0.068189874
66	0x3d4cc20e	0.049989752
67	0x3cad8578	0.021181807
68	0xbd04d6c6	-0.032431386
69	0x3d9ea5b7	0.07746451
70	0x3d193f82	0.03741408
71	0xbd9ea41a	-0.07746144
72	0xbd045812	-0.032310553
73	0x3d3fd1d2	0.04683096
74	0x3caeb7cc	0.021327876
75	0xbb033880	-0.002002269
76	0xbd6c8d4f	-0.05775195
77	0xbcd8db04	-0.026471622
78	0x3c4bf2f0	0.0124480575
79	0xbd5b276c	-0.053504393
80	0x3d8440d5	0.06457678
81	0xbda9eb6a	-0.08296855
82	0x3c0ce308	0.00859905
83	0xbd8ffa6a	-0.070301846
84	0xbd97fdf5	-0.07421485
85	0xbd9a2e3c	-0.0752835
86	0x3d2f5e72	0.04281468
87	0xbcab9cb8	-0.020948753
88	0xbd87b596	-0.06626432
89	0xbd2271c1	-0.039659265
90	0x3d83fc89	0.06444652
91	0x3d8595eb	0.06522735
92	0x3d0acf6c	0.03388922
93	0x3c260460	0.010132879
94	0xbd30ef18	-0.043196768
95	0xbd7fb222	-0.06242574
96	0x3d632226	0.05545249
97	0xbd7a45fc	-0.0611019
98	0x3c99c73c	0.01877176
99	0x3a9ba580	0.0011874884
100	0xbd518124	-0.05114855
101	0xbd9d2c93	-0.076745175
102	0x3cb3ac40	0.021932721
103	0xbca6b9ec	-0.020352326
104	0x3d5c02ba	0.053713538
105	0x3ccbb138	0.024864778
106	0x3da6c129	0.08142311
107	0xbd658841	-0.056038145
108	0xbd18fa97	-0.037348356
109	0xbbb41a90	-0.0054963306
110	0x3d5a6f22	0.05332864
111	0x3c850bb4	0.016240932
112	0x3d4a90ae	0.049454384
113	0xbd3ca000	-0.046051025
114	0xbcdb7dcc	-0.026793383
115	0xbd3860fb	-0.045014363
116	0xbc4b02f0	-0.012390837
117	0xbccff25c	-0.02538412
118	0x3d3d5f96	0.046233736
119	0x3d87a487	0.06623178
120	0xbc3051c0	-0.010761678
121	0x3d11f232	0.035631366
122	0x3c72ad10	0.014811769
123	0x3da9f555	0.082987465
124	0xbce60878	-0.02808021
125	0xbc8b1de4	-0.016982026
126	0xbb5ab6a0	-0.0033373013
127	0xbc7fdea0	-0.015617043
128	0xbc571180	-0.013126731
129	0x3c7adf30	0.015312001
130	0xbdb46c20	-0.08809686
131	0xb8cbc800	-9.717047e-05
132	0x3d9c9c0d	0.07646952
133	0xbd64ad2e	-0.05582922
134	0x3da1e41f	0.07904839
135	0xbd9642a0	-0.073369265
136	0xbd2038f2	-0.039116807
137	0xbb8b5b10	-0.004252799
138	0xbd84f0bf	-0.06491231
139	0xbbd82aa0	-0.006596878
140	0x3d87c9af	0.06630265
141	0x3cf2d8a0	0.02964431
142	0x3db27723	0.0871413
143	0xbd4a43a9	-0.049380932
144	0xbd6f505c	-0.058426246
145	0xbd5f59e7	-0.054529097
146	0x3d952831	0.072830565
147	0xbd0ef858	-0.034904808
148	0xbb14f8c0	-0.0022731274
149	0x3d12d54a	0.03584794
150	0x3d3b52c6	0.045733236
151	0xbd34d204	-0.0441456
152	0x3cdd44e8	0.027010396
153	0x3d6d209e	0.057892434
154	0x3d326a02	0.04355813
155	0x3db0a713	0.08625617
156	0xbcd4f3d6	-0.025995176
157	0x3d75d56a	0.06001798
158	0x3c8ae98c	0.016957067
159	0xbd9dcff4	-0.077056795
160	0xbbb98fb0	-0.005662881
161	0xbccc5648	-0.024943486
162	0xbd69f098	-0.057114214
163	0xbc374c90	-0.0111876875
164	0xbc2cda38	-0.010550074
165	0x3c68a7b0	0.014200136
166	0x3d79c4ce	0.060978703
167	0xbd833440	-0.0640645
168	0x3d1d9a26	0.038477086
169	0xbd2793e4	-0.040912524
170	0x3c3dabd8	0.011576615
171	0xbd67358e	-0.056447558
172	0x3c30a2e8	0.010781027
173	0xbcaea4a4	-0.021318741
174	0x3b2879a0	0.002570726
175	0xbd24cb78	-0.040233105
176	0x3cb518cc	0.02210655
177	0xbd8b0757	-0.06788509
178	0xbcdde890	-0.027088434
179	0x3d403bbe	0.046931975
180	0x3da4a149	0.08038575
181	0xbd0f1cdf	-0.034939643
182	0xbaf82900	-0.0018933117
183	0x3d73e7ba	0.059547164
184	0xbdabbcd4	-0.083856255
185	0xbda49002	-0.0803528
186	0xbc550c40	-0.013003409
187	0xbb13c940	-0.0022550374
188	0xbd8072a1	-0.06271864
189	0xbcc38784	-0.02386833
190	0x3d9a59db	0.0753667
191	0x3d314f5e	0.04328858
192	0x3d35bea6	0.04437127
193	0x3d5f3556	0.054494224
194	0xbc0b97f8	-0.008520119
195	0x3bcb7d10	0.006209977
196	0x3d8084b5	0.06275312
197	0x3da9b4c5	0.08286432
198	0x3d7e614e	0.062104516
199	0xbd2d795e	-0.042352073
200	0x3d14e1be	0.036348097
201	0xbc8a7840	-0.016903043
202	0xbda8885d	-0.08229134
203	0xbd96da6c	-0.073658794
204	0x3ce5912c	0.028023325
205	0xbbcef970	-0.0063163564
206	0xbd92caa6	-0.07167558
207	0xbcdbf50e	-0.02685025
208	0xbd9db5f4	-0.077007204
209	0x3db1b285	0.08676628
210	0xbd864bb4	-0.06557408
211	0xbd24cd65	-0.040234942
212	0x3d5cc65a	0.0539001
213	0xbd1bba73	-0.03801961
214	0x3d107a40	0.035272837
215	0x3d7a25c2	0.061071165
216	0x3b218580	0.0024646223
217	0x3d88d5f5	0.06681434
218	0xbcf02788	-0.029315725
219	0xbda6ba13	-0.081409596
220	0x3cb43ef0	0.022002667
221	0x3bc760d0	0.006084539
222	0xbd76fbdd	-0.06029879
223	0xbd96770a	-0.07346924
224	0x3c7cea00	0.015436649
225	0x3bcd9f20	0.0062750727
226	0xbd03be49	-0.032163892
227	0x3d70716e	0.058701925
228	0x3c944fa4	0.018104382
229	0xbc838f8c	-0.01605966
230	0xbd696fb4	-0.056991294
231	0xbcf75ec8	-0.030196562
232	0xbb29ec60	-0.0025928244
233	0x3d8bbcb7	0.06823104
234	0x3c965338	0.018350229
235	0xbd22b9b1	-0.03972787
236	0xbcf83e4a	-0.03030314
237	0xbcc78970	-0.024357527
238	0x3ce09220	0.027413428
239	0xbd11f64e	-0.035635285
240	0xbd84d07e	-0.06485079
241	0xbd807db6	-0.062739775
242	0x3dab8695	0.08375279
243	0x3d632bbe	0.055461638
244	0x3d48ca72	0.049021192
245	0x3c7076b0	0.014676735
246	0x3c325278	0.01088392
247	0x3ad61000	0.0016331673
248	0x3bf955a0	0.0076090842
249	0x3d946c33	0.072472
250	0x3d0161b0	0.031587303
251	0x3c096b48	0.008387394
252	0xbd97e8a5	-0.0741742
253	0x3d4fa22a	0.05069176
254	0xbd88f3a1	-0.066870935
255	0xbd863deb	-0.06554779

fc2.bias f4 [3]
0	0x3d91bc95	0.07116047
1	0xbd22ce66	-0.03974762
2	0x3dacf18f	0.08444511
